sine_model.tflite (tflite, 2932 bytes, 5 tensors)

dense_3/bias f4 [16]
00000000: 54a5 db3e c9c0 a93e 6c5c a73e 6d5e 13bd
00000010: 98e9 b33e 5b16 03bf 0000 0000 b780 683e
00000020: 0544 d73e 0000 0000 089b 7c3e 01c8 943e
00000030: 3ee3 863e 13f8 b5be 63a6 bdbe 0000 0000
0.42899573 0.33154896 0.326877 -0.035978723 0.35139155 -0.51205987 0.0 0.22705351
0.42044082 0.0 0.24668515 0.2905884 0.26345247 -0.35540828 -0.37041005 0.0

dense_2/bias f4 [16]
00000000: a092 25be 2d1c 31bf bc24 1bbf cebb d4be
00000010: 0000 0000 0000 0000 0000 0000 0000 0000
00000020: 50a2 5fbf 4342 2a3e 8e9e 9bbe a602 d9be
00000030: 0000 0000 011e 423f 58b5 2e3e 0000 0000
-0.16169214 -0.6918362 -0.6060293 -0.41549534 0.0 0.0 0.0 0.0
-0.87357044 0.1662684 -0.30394405 -0.42384833 0.0 0.7582703 0.17061365 0.0

sequential_1/dense_2/MatMul f4 [16, 1]
00000000: 3473 cf3d a9ed 703e eb26 8b3e a977 983e
00000010: 6215 8fbe ea7e ccbe fce9 a7be 4a24 2bbe
00000020: 0a01 c83e 454e ee3e 5708 f53e be52 203e
00000030: 48d4 06be bc19 8a3e d632 01be b6f4 22be
0.10129395 0.2352816 0.2717813 0.29778793 -0.27946 -0.39940578 -0.32795703 -0.16713062
0.39063293 0.4654409 0.47857925 0.15656564 -0.13166916 0.2697276 -0.12617049 -0.15913662

sequential_1/dense_3/MatMul f4 [16, 16]
00000000: 33f3 f73d 63c3 d9be 3860 813d 6791 90bd
00000010: 988d 7ebd ccd0 67be ca99 7cbe a616 b7be
00000020: 778b 09be ce3c 3bbf a985 fcbe 50af 973e
00000030: 59f4 be3e 78a8 d43e 7f2e 093f de85 463e
00000040: 7c82 73bc cff6 6ebf e5e0 a1be ea52 893d
00000050: ca5d 1a3e 2fa1 c4be f47c e83d 9098 cbbe
00000060: 5340 06be d710 b4bb f609 cebe e2ab 44bd
00000070: 722d 5c3e 66ac eb3e df2a 42be 9af5 0fbe
00000080: dc88 133e 5fac 1dbf aa8f dabe 3089 d6be
00000090: cace 713e 49e3 db3e 78d1 b6bd e881 72bd
000000a0: 4fb8 5fbe abce a43e 6d0b e5be 36be 3dbc
000000b0: 7061 89be 8b08 e23e 1218 b33e 4950 cf3e
000000c0: 97e1 5c3e 4061 ccbd 3e97 ab3e 4084 c43b
000000d0: c787 87be 6e37 0b3e 21f6 c03e acf6 27be
000000e0: 46e7 8dbe 5e59 b6be 43ae 823e 3730 87be
000000f0: 1ca4 b6bd 9ec8 6fbd 0819 a63d d607 84be
00000100: 6ec9 963e 96fe bfbe 6ecd dabe 7414 ff3d
00000110: 9058 8c3c 1d20 c0be 0ee4 783e e787 a63e
00000120: eab2 eabe e5ab c13d 35f6 c33e e0b4 ff3d
00000130: 60e6 67bd aa27 c13e 9f55 143f 24d0 ba3d
00000140: 4e1d 4a3e 2665 023f 0a21 c83e ebe2 8abe
00000150: 996d 92be d013 ecbc 2234 bfbe aab8 183e
00000160: 0bff ee3e 5f9d 4abe 00d1 c33e 6a73 c53e
00000170: 51b3 d83e 84b0 cfbe 7064 e7bd 6043 8abe
00000180: fc02 b2be ea87 193e a6b4 4dbe a225 d7be
00000190: 80e9 493b ca7d 9bbe ac5e b6be 8904 55be
000001a0: d0b0 973c 8a05 483e 1cac 5cbe 0063 c83c
000001b0: c52a ccbe 81e4 7abe bed4 d4be 5867 d1bd
000001c0: 6d50 45be e204 01be 0512 2fbe 6447 00bf
000001d0: e2d3 463e 5482 07be 568e 743e 301e 4a3d
000001e0: 89e6 a63d 0c37 1e3d f36b 923e 45a5 e13e
000001f0: ae64 093e 7e96 8bbc b1f5 52bd 5b93 a23e
00000200: 756a 583e 2cc2 c0be 203b 143e accb 083e
00000210: 222e 6f3e 56d9 9abe a496 ed3d a01d 48bd
00000220: 2c43 843d f8e5 53bf 1ab3 5cbe 77d2 dabe
00000230: 0c07 aebd b571 733d 7699 ee3e f7e4 4cbe
00000240: 6ebc 6f3e 192b abbe 74ac c53d 5046 523d
00000250: edf0 a2be 7eb8 12be e8a7 883d f2a1 20be
00000260: bfd3 74be cf53 41be 8829 38be c5d6 ba3e
00000270: ba29 a5be f476 81be 4879 93be b0f2 04be
00000280: 2fd6 2bbe d777 e1be fa01 82be 1376 b1bd
00000290: 7f3c a23e 345a c33d 90c1 e1bc db43 aabe
000002a0: b763 7ebe e5aa 7b3e 0f56 8a3e 55be b83d
000002b0: 6221 1ebe 1e33 b03d 8bac 3bbd bd3a a63e
000002c0: 65e8 293e 4ef7 ecbe d595 5ebe 5819 0dbf
000002d0: 9e15 80be e6dd 1b3e 627d dcbe cb98 a93e
000002e0: d4d0 19bf 37dc 55be 1647 643e db13 653e
000002f0: 5046 b9bd 036c a53e dc9c 853c 6033 14bd
00000300: 2c6d 323e 7dad 10bf 5c68 d2bd 250b bfbe
00000310: 0641 3b3e c8f5 e1bd 5deb ad3e 4e76 763e
00000320: 9779 f83d 1c12 f33c ff91 533e f55b 6dbe
00000330: c496 0dbe b8e3 d83e 415d a23e 7060 98be
00000340: 8d31 f8bc 0922 1d3f 0e64 fa3e 2633 cd3d
00000350: e33f a9be ccc4 ea3d 00ce 07ba a4da 81be
00000360: 9006 adb8 6a6b 8d3e 2e99 8e3c 6545 513c
00000370: 8ce4 92bd f428 dbbe c430 fcbe 8334 bcbe
00000380: 8a91 383e 333c 703e 2c0d 663e 1dbf c23e
00000390: 57e2 d93e 527e 3b3e 81db 8d3e 1f5d adbe
000003a0: 7e8f ebbc e776 033d 49de cb3d 1823 f33d
000003b0: 6805 323d c2f5 75bd fd43 2ebe 2fa3 cb3e
000003c0: 55c8 8e3e 20fc 7abc 219b 8c3e 146b 9ebe
000003d0: 6605 083e fac7 0fbe 13b3 d13e ea0e 513e
000003e0: 1cc4 c1be 70b1 d9be 8b41 aabe ceb4 8ebe
000003f0: 7cee d33d 7d8b 67be 0d06 82be b44d 813d
0.121069334 -0.4253188 0.063171804 -0.07058983 -0.062146753 -0.22638243 -0.24668041 -0.35759467
-0.13432108 -0.73139656 -0.49320725 0.2962594 0.37295797 0.4153478 0.5358657 0.19387004
-0.014862653 -0.9334535 -0.31616893 0.06705268 0.1507484 -0.38404223 0.11351958 -0.39764833
-0.13110475 -0.0054951715 -0.40241975 -0.048015483 0.21501711 0.46029967 -0.18961667 -0.14058533
0.14407676 -0.6159114 -0.42687732 -0.4190154 0.2361404 0.42946842 -0.08926672 -0.05920592
-0.21847652 0.32188925 -0.4473528 -0.011580994 -0.2683215 0.44147143 0.34979302 0.4049094
0.2157043 -0.099794865 0.33513826 0.0059972107 -0.26470777 0.13595363 0.3768778 -0.16402692
-0.2771551 -0.35615057 0.25523576 -0.26403973 -0.0891802 -0.058540933 0.08110243 -0.25787228
0.29450554 -0.3749892 -0.42734855 0.12455073 0.017132074 -0.375245 0.24305746 0.3252556
-0.45839626 0.094566144 0.3827378 0.12485671 -0.056616187 0.37725574 0.5794315 0.09121731
0.19737741 0.5093559 0.39087707 -0.2712625 -0.2859924 -0.028818041 -0.37344462 0.14914194
0.46678957 -0.19786595 0.38245392 0.38564616 0.42324308 -0.40564358 -0.11298454 -0.27004528
-0.34767902 0.14993253 -0.20088443 -0.420209 0.0030809343 -0.30369407 -0.35619104 -0.20802511
0.018516928 0.19533363 -0.2155003 0.02446127 -0.3987638 -0.2450123 -0.4156856 -0.102247894
-0.19268961 -0.12599519 -0.17096718 -0.50108933 0.19416764 -0.1323331 0.23882422 0.049345195
0.0814944 0.038626716 0.28597984 0.44071403 0.13417313 -0.017039534 -0.05150384 0.31753048
0.2113436 -0.3764814 0.1447568 0.13358945 0.23357442 -0.3024394 0.11600998 -0.048856378
0.064581245 -0.8277278 -0.21552697 -0.42738697 -0.08497438 0.05943461 0.46601456 -0.20009218
0.23411724 -0.33431318 0.096520334 0.051336586 -0.31824437 -0.1432819 0.066726506 -0.15686777
-0.239089 -0.18879627 -0.17984593 0.3649198 -0.32258397 -0.25286067 -0.28803468 -0.12983203
-0.16780923 -0.44036743 -0.25392133 -0.08665099 0.3168678 0.09538689 -0.027558118 -0.33254895
-0.24842726 0.2457691 0.27018782 0.09020678 -0.15442422 0.086035 -0.045818847 0.3246669
0.16592558 -0.46282429 -0.21736844 -0.55116796 -0.25016493 0.15221366 -0.4306441 0.33124384
-0.6008427 -0.20884787 0.22292742 0.22370856 -0.09046614 0.3230897 0.016310148 -0.036181808
0.17424458 -0.5651472 -0.10273811 -0.3731319 0.18286523 -0.11033207 0.3396863 0.24068567
0.121325664 0.029671721 0.20661162 -0.2317961 -0.13827044 0.42361236 0.31711772 -0.29761076
-0.030297065 0.6138006 0.4890446 0.100195214 -0.33056554 0.11463317 -0.00051805377 -0.25362122
-8.250505e-05 0.27621013 0.017407026 0.012772893 -0.07172498 -0.42804682 -0.49255955 -0.36758813
0.18024269 0.23460464 0.22465962 0.38036433 0.42555496 0.18309906 0.2770653 -0.33860108
-0.028754946 0.032095816 0.09954507 0.11871928 0.043462187 -0.060048826 -0.17018123 0.39772937
0.27887216 -0.0153189 0.27462104 -0.3094107 0.1328331 -0.14041129 0.40956935 0.20415846
-0.37844932 -0.42518187 -0.3325313 -0.27872318 0.10348222 -0.22611804 -0.2539524 0.06313649

sequential_1/dense_4/MatMul f4 [1, 16]
00000000: 758e 80bf a991 773f cc9a 883f 969e c23e
00000010: 131f 9dbe 6e4b ce3f 6ef6 cebe aa88 3cbe
00000020: a9dc 30bf 8016 e2be 59d0 8fbe ff45 513f
00000030: eafb d8bd 1772 cb3e efe5 c53e 66c0 e6be
-1.0043474 0.96706635 1.067224 0.38011616 -0.3068777 1.6116769 -0.40422386 -0.18411508
-0.690867 -0.4415779 -0.28088644 0.8174743 -0.10594924 0.3973548 0.38651988 -0.45068663
