sine_model_quantized.tflite (tflite, 2752 bytes, 3 tensors)

sequential_1/dense_2/MatMul i1 [16, 1] scale=0.0037683407 zero_point=0
0	0x1b	0.101745196
1	0x3e	0.23363712
2	0x48	0.27132052
3	0x4f	0.29769892
4	0xb6	-0.2788572
5	0x96	-0.3994441
6	0xa9	-0.32784563
7	0xd4	-0.165807
8	0x68	0.39190742
9	0x7c	0.46727425
10	0x7f	0.47857925
11	0x2a	0.15827031
12	0xdd	-0.13189192
13	0x48	0.27132052
14	0xdf	-0.12435524
15	0xd6	-0.15827031

sequential_1/dense_3/MatMul i1 [16, 16] scale=0.0073500276 zero_point=0
0	0x10	0.11760044
1	0xc6	-0.4263016
2	0x09	0.06615025
3	0xf6	-0.073500276
4	0xf8	-0.05880022
5	0xe1	-0.22785085
6	0xde	-0.24990094
7	0xcf	-0.36015135
8	0xee	-0.1323005
9	0x9c	-0.73500276
10	0xbd	-0.49245185
11	0x28	0.2940011
12	0x33	0.3748514
13	0x39	0.41895157
14	0x49	0.536552
15	0x1a	0.19110072
16	0xfe	-0.014700055
17	0x81	-0.9334535
18	0xd5	-0.3160512
19	0x09	0.06615025
20	0x15	0.15435058
21	0xcc	-0.38220143
22	0x0f	0.11025041
23	0xca	-0.3969015
24	0xee	-0.1323005
25	0xff	-0.0073500276
26	0xc9	-0.40425152
27	0xf9	-0.051450193
28	0x1d	0.2131508
29	0x3f	0.46305174
30	0xe6	-0.19110072
31	0xed	-0.13965052
32	0x14	0.14700055
33	0xac	-0.6174023
34	0xc6	-0.4263016
35	0xc7	-0.41895157
36	0x20	0.23520088
37	0x3a	0.4263016
38	0xf4	-0.08820033
39	0xf8	-0.05880022
40	0xe2	-0.22050083
41	0x2c	0.3234012
42	0xc3	-0.44835168
43	0xfe	-0.014700055
44	0xdb	-0.27195102
45	0x3c	0.44100165
46	0x30	0.35280132
47	0x37	0.40425152
48	0x1d	0.2131508
49	0xf2	-0.102900386
50	0x2e	0.33810127
51	0x01	0.0073500276
52	0xdc	-0.264601
53	0x12	0.1323005
54	0x33	0.3748514
55	0xea	-0.1617006
56	0xda	-0.27930105
57	0xd0	-0.35280132
58	0x23	0.25725096
59	0xdc	-0.264601
60	0xf4	-0.08820033
61	0xf8	-0.05880022
62	0x0b	0.0808503
63	0xdd	-0.25725096
64	0x28	0.2940011
65	0xcd	-0.3748514
66	0xc6	-0.4263016
67	0x11	0.12495047
68	0x02	0.014700055
69	0xcd	-0.3748514
70	0x21	0.24255091
71	0x2c	0.3234012
72	0xc2	-0.4557017
73	0x0d	0.09555036
74	0x34	0.38220143
75	0x11	0.12495047
76	0xf8	-0.05880022
77	0x33	0.3748514
78	0x4f	0.5806522
79	0x0c	0.08820033
80	0x1b	0.19845074
81	0x45	0.5071519
82	0x35	0.38955146
83	0xdb	-0.27195102
84	0xd9	-0.28665107
85	0xfc	-0.02940011
86	0xcd	-0.3748514
87	0x14	0.14700055
88	0x40	0.47040176
89	0xe5	-0.19845074
90	0x34	0.38220143
91	0x34	0.38220143
92	0x3a	0.4263016
93	0xc9	-0.40425152
94	0xf1	-0.11025041
95	0xdb	-0.27195102
96	0xd1	-0.3454513
97	0x14	0.14700055
98	0xe5	-0.19845074
99	0xc7	-0.41895157
100	0x00	0.0
101	0xd7	-0.30135113
102	0xd0	-0.35280132
103	0xe4	-0.20580077
104	0x03	0.022050083
105	0x1b	0.19845074
106	0xe3	-0.2131508
107	0x03	0.022050083
108	0xca	-0.3969015
109	0xdf	-0.24255091
110	0xc7	-0.41895157
111	0xf2	-0.102900386
112	0xe6	-0.19110072
113	0xef	-0.12495047
114	0xe9	-0.16905063
115	0xbc	-0.49980187
116	0x1a	0.19110072
117	0xee	-0.1323005
118	0x20	0.23520088
119	0x07	0.051450193
120	0x0b	0.0808503
121	0x05	0.036750138
122	0x27	0.28665107
123	0x3c	0.44100165
124	0x12	0.1323005
125	0xfe	-0.014700055
126	0xf9	-0.051450193
127	0x2b	0.3160512
128	0x1d	0.2131508
129	0xcd	-0.3748514
130	0x14	0.14700055
131	0x12	0.1323005
132	0x20	0.23520088
133	0xd7	-0.30135113
134	0x10	0.11760044
135	0xf9	-0.051450193
136	0x09	0.06615025
137	0x8f	-0.8305531
138	0xe3	-0.2131508
139	0xc6	-0.4263016
140	0xf4	-0.08820033
141	0x08	0.05880022
142	0x3f	0.46305174
143	0xe5	-0.19845074
144	0x20	0.23520088
145	0xd3	-0.33075124
146	0x0d	0.09555036
147	0x07	0.051450193
148	0xd5	-0.3160512
149	0xed	-0.13965052
150	0x09	0.06615025
151	0xeb	-0.15435058
152	0xdf	-0.24255091
153	0xe6	-0.19110072
154	0xe8	-0.17640066
155	0x32	0.36750138
156	0xd4	-0.3234012
157	0xde	-0.24990094
158	0xd9	-0.28665107
159	0xee	-0.1323005
160	0xe9	-0.16905063
161	0xc4	-0.44100165
162	0xdd	-0.25725096
163	0xf4	-0.08820033
164	0x2b	0.3160512
165	0x0d	0.09555036
166	0xfc	-0.02940011
167	0xd3	-0.33075124
168	0xde	-0.24990094
169	0x21	0.24255091
170	0x25	0.27195102
171	0x0c	0.08820033
172	0xeb	-0.15435058
173	0x0c	0.08820033
174	0xfa	-0.044100165
175	0x2c	0.3234012
176	0x17	0.16905063
177	0xc1	-0.46305174
178	0xe2	-0.22050083
179	0xb5	-0.55125207
180	0xde	-0.24990094
181	0x15	0.15435058
182	0xc5	-0.43365163
183	0x2d	0.33075124
184	0xae	-0.60270226
185	0xe4	-0.20580077
186	0x1e	0.22050083
187	0x1e	0.22050083
188	0xf4	-0.08820033
189	0x2c	0.3234012
190	0x02	0.014700055
191	0xfb	-0.036750138
192	0x18	0.17640066
193	0xb3	-0.5659521
194	0xf2	-0.102900386
195	0xcd	-0.3748514
196	0x19	0.18375069
197	0xf1	-0.11025041
198	0x2e	0.33810127
199	0x21	0.24255091
200	0x11	0.12495047
201	0x04	0.02940011
202	0x1c	0.20580077
203	0xe0	-0.23520088
204	0xed	-0.13965052
205	0x3a	0.4263016
206	0x2b	0.3160512
207	0xd8	-0.2940011
208	0xfc	-0.02940011
209	0x54	0.6174023
210	0x43	0.49245185
211	0x0e	0.102900386
212	0xd3	-0.33075124
213	0x10	0.11760044
214	0x00	0.0
215	0xdd	-0.25725096
216	0x00	0.0
217	0x26	0.27930105
218	0x02	0.014700055
219	0x02	0.014700055
220	0xf6	-0.073500276
221	0xc6	-0.4263016
222	0xbd	-0.49245185
223	0xce	-0.36750138
224	0x19	0.18375069
225	0x20	0.23520088
226	0x1f	0.22785085
227	0x34	0.38220143
228	0x3a	0.4263016
229	0x19	0.18375069
230	0x26	0.27930105
231	0xd2	-0.33810127
232	0xfc	-0.02940011
233	0x04	0.02940011
234	0x0e	0.102900386
235	0x10	0.11760044
236	0x06	0.044100165
237	0xf8	-0.05880022
238	0xe9	-0.16905063
239	0x36	0.3969015
240	0x26	0.27930105
241	0xfe	-0.014700055
242	0x25	0.27195102
243	0xd6	-0.30870116
244	0x12	0.1323005
245	0xed	-0.13965052
246	0x38	0.41160154
247	0x1c	0.20580077
248	0xcd	-0.3748514
249	0xc6	-0.4263016
250	0xd3	-0.33075124
251	0xda	-0.27930105
252	0x0e	0.102900386
253	0xe1	-0.22785085
254	0xdd	-0.25725096
255	0x09	0.06615025

sequential_1/dense_4/MatMul i1 [1, 16] scale=0.01269037 zero_point=0
0	0xb1	-1.0025393
1	0x4c	0.9644681
2	0x54	1.065991
3	0x1e	0.3807111
4	0xe8	-0.3045689
5	0x7f	1.6116769
6	0xe0	-0.40609184
7	0xf1	-0.19035555
8	0xca	-0.68527997
9	0xdd	-0.44416294
10	0xea	-0.27918813
11	0x40	0.8121837
12	0xf8	-0.10152296
13	0x1f	0.39340147
14	0x1e	0.3807111
15	0xdc	-0.45685333
